checkpoint.pth (torch_old, 28391 bytes, 6 tensors)

fc1.weight f4 [64, 37]
0.08782464 0.13233425 -0.27759945 -0.3261723 0.0066293757 0.16013844 -0.10486278 0.08839953
-0.1602289 -0.527759 -0.04195587 -0.26599663 0.030249316 -0.051185742 -0.2713571 -0.09451837
-0.009582596 0.15685588 0.14737694 0.03076922 0.031020306 0.08761302 -0.036457647 0.12365154
-0.11918017 -0.045843054 -0.067931384 0.07820347 0.07145913 -0.030533217 -0.066236414 0.0037419107
0.018786607 -0.042214233 -0.028164063 -0.2496694 0.0071112164 0.17236705 0.049953282 0.10424789
0.0004832219 -0.39252502 0.11483618 -0.099745356 -0.13392015 -0.63913655 -0.58405584 0.058854952
0.16291675 -0.06212955 -0.06536964 0.08084073 0.21375953 -0.16881114 0.023025425 -0.12780066
-0.12558566 0.02783741 -0.19997145 -0.14131978 -0.07448456 -0.11160101 0.062936656 0.02943211
-0.19788076 -0.14980958 -0.10585223 0.0952868 -0.00483537 0.07981492 0.19986375 0.12154298
0.06634494 -0.0020996514 0.38735244 -0.27998748 0.039908927 -0.36037317 -1.5529668 -0.06377241
0.08033312 0.023451364 0.06374491 -0.13548736 0.029483454 0.173167 -0.022192515 -0.14725794
0.015738012 0.057032112 0.0066853752 0.062455114 0.084267035 0.19095276 -0.042718105 -0.022145906
0.0335642 -0.042392537 -0.14768413 0.023502212 -0.004677614 0.061997388 0.17051217 0.06766768
-0.049293123 -0.11420356 0.01495924 -0.12219306 -0.077138476 -0.093018845 0.028284445 -0.26017207
-0.38738048 0.36503166 -0.6168644 -0.71705014 -0.15006582 -0.052463233 0.11311829 -0.25472805
-0.26508263 0.15484455 -0.15116708 -0.25425908 -0.19896545 -0.3174284 -0.07400464 -0.21626553
0.0051428303 -0.37935 -0.25461408 0.041249644 -0.08903994 -0.15070285 -0.09429933 0.19303305
-0.32427365 -0.30067798 0.26936445 -0.18227613 -0.24355151 0.29445365 -0.39410824 -0.17209338
-0.44994113 -1.232794 0.031965528 0.00091709045 -0.030568818 -0.1225529 -0.14777458 -0.10828568
-0.0991305 0.16745327 0.1237958 -0.27108985 -0.019954154 -0.30290702 0.09613148 0.10104333
-0.28364587 -0.11250508 -0.24359086 0.0021856092 -0.023844603 -0.16438948 -0.097563006 -0.012754611
-0.5676105 0.028568083 -0.15171036 0.5311221 -0.080061935 -0.08652645 0.09627386 -0.03371915
0.14986403 0.28851837 0.22327533 -0.54437405 0.031103974 -0.32944876 -0.4170919 -0.020976264
-0.017823089 -0.017007584 -0.011402217 0.037928015 0.0045670336 -0.0072926804 0.27870268 0.15137777
-0.33249635 -0.101101965 -1.8230112 -0.0031087857 0.015044002 -0.09033024 -0.08674211 0.038791087
0.028512036 0.0072700023 -0.066363454 0.08275365 -0.051546667 0.09733374 0.11280264 0.03298645
0.19978285 0.03481853 -0.017994748 0.048819147 0.037640586 -0.012434032 -0.005380273 -0.033077583
0.11355053 0.030196564 0.05926518 0.20445684 -0.02254373 0.012409813 0.092044786 -0.09311463
-0.30746436 -0.12740992 -0.06128512 -0.030763408 0.06683166 -0.3859815 -0.09580957 0.13416159
0.2885413 -0.40166947 0.17062293 -0.3196938 -0.11953074 -0.42797595 -0.2184684 0.04295839
0.13140112 -0.27862084 -0.11061643 0.15332308 -0.18220003 -0.25339094 0.24921705 -0.34419256
0.0074966275 -0.18088332 0.13539961 -0.10081896 -0.5845914 -0.13675624 -0.11324407 0.38435057
00000000: 68dd b33d a182 073e 8421 8ebe 0e00 a7be
00000010: 3c3b d93b 55fb 233e 4cc2 d6bd d00a b53d
00000020: 0b13 24be 371b 07bf ebd9 2bbd b630 88be
00000030: 6acd f73c 24a8 51bd 51ef 8abe d992 c1bd
00000040: 5200 1dbc d49e 203e fbe9 163e bb0f fc3c
00000050: 4c1e fe3c 746e b33d 9d54 15bd 053d fd3d
00000060: bc14 f4bd edc5 3bbd 9c1f 8bbd 2429 a03d
00000070: 2a59 923d cc20 fabc f5a6 87bd d83a 753b
00000080: 5fe6 993c d5e8 2cbd 52b8 e6bc 56a9 7fbe
00000090: 3505 e93b fd80 303e d09b 4c3d eb7f d53d
000000a0: f258 fd39 0af9 c8be 3b2f eb3d 4b47 ccbd
000000b0: 5d22 09be 749e 23bf af84 15bf e411 713d
000000c0: a6d3 263e 8e7b 7ebd 85e0 85bd d38f a53d
000000d0: c7e3 5a3e d4dc 2cbe d19f bc3c 2dde 02be
000000e0: 8799 00be 480b e43c 51c5 4cbe 22b6 10be
000000f0: 5c8b 98bd 128f e4bd efe4 803d 9c1b f13c
00000100: 41a1 4abe af67 19be 0ec9 d8bd ba25 c33d
00000110: 0672 9ebb 0176 a33d 15a9 4c3e 87eb f83d
00000120: dbdf 873d 4e9a 09bb 0f53 c63e 855a 8fbe
00000130: 8b77 233d d582 b8be 9ec7 c6bf 1c9b 82bd
00000140: b185 a43d 131d c03c b18c 823d 33bd 0abe
00000150: 4987 f13c b152 313e 14cd b5bc c9ca 16be
00000160: 01ed 803c 819a 693d fe10 db3b efd0 7f3d
00000170: 3294 ac3d 1f89 433e 2ef9 2ebd 556b b5bc
00000180: 9d7a 093d cca3 2dbd 823a 17be b687 c03c
00000190: ac46 99bb f9f0 7d3d be9a 2e3e 5a95 8a3d
000001a0: 96e7 49bd 8ee3 e9bd 9a17 753c 5b40 fabd
000001b0: c7fa 9dbd aa80 bebd c8b4 e73c 4635 85be
000001c0: bc56 c6be 6ee5 ba3e d3ea 1dbf 9990 37bf
000001d0: dbaa 19be b0e3 56bd 90aa e73d b76b 82be
000001e0: e9b8 87be 928f 1e3e 8bcb 1abe 3f2e 82be
000001f0: 99bd 4bbe fa85 a2be bf8f 97bd b674 5dbe
00000200: 3085 a83b 2a3a c2be c75c 82be 63f5 283d
00000210: 925a b6bd d951 1abe 0220 c1bd 75aa 453e
00000220: 3207 a6be 77f2 99be 23ea 893e 98a6 3abe
00000230: 9165 79be a1c2 963e 8ec8 c9be 3f39 30be
00000240: af5e e6be 32cc 9dbf 49ee 023d e668 703a
00000250: 756b fabc 04fd fabd 3852 17be e2c4 ddbd
00000260: ee04 cbbd df78 2b3e a788 fd3d 4acc 8abe
00000270: e576 a3bc a116 9bbe 95e0 c43d ceef ce3d
00000280: 083a 91be 1069 e6bd e26f 79be 703c 0f3b
00000290: c255 c3bc b755 28be 1dcf c7bd b7f8 50bc
000002a0: ec4e 11bf 9d07 ea3c f659 1bbe 9ef7 073f
000002b0: 83f7 a3bd c834 b1bd 3b2b c53d 171d 0abd
000002c0: f575 193e aeb8 933e 4aa2 643e 195c 0bbf
000002d0: c3cd fe3c 82ad a8be 128d d5be 6ad6 abbc
000002e0: ba01 92bc 7d53 8bbc 5dd0 3abc 685a 1b3d
000002f0: 0ea7 953b 70f7 eebb 1eb2 8e3e c602 1b3e
00000300: f63c aabe 8c0e cfbd 6e58 e9bf c5bc 4bbb
00000310: 1e7b 763c 10ff b8bd d9a5 b1bd 67e3 1e3d
00000320: 1392 e93c 3339 ee3b 90e9 87bd bf7a a93d
00000330: 9922 53bd e956 c73d 1205 e73d cd1c 073d
00000340: e093 4c3e e09d 0e3d b969 93bc 96f6 473d
00000350: 042d 1a3d 1cb8 4bbc 004d b0bb 5c7c 07bd
00000360: 2e8d e83d c95e f73c 0cc0 723d 225d 513e
00000370: a1ad b8bc 8752 4b3c fa81 bc3d e2b2 bebd
00000380: f86b 9dbe bf77 02be 1b06 7bbd 8b03 fcbc
00000390: 0adf 883d 5e9f c5be cf37 c4bd a861 093e
000003a0: afbb 933e 9fa7 cdbe c7b7 2e3e e8ae a3be
000003b0: 88cc f4bd aa1f dbbe 2eb6 5fbe 23f5 2f3d
000003c0: 048e 063e 64a7 8ebe de8a e2bd ba00 1d3e
000003d0: a592 3abe 75bc 81be c132 7f3e 023a b0be
000003e0: 45a6 f53b 7a39 39be 32a6 0a3e 2c7a cebd
000003f0: c8a7 15bf d409 0cbe 82ec e7bd 99c9 c43e

fc1.bias f4 [64]
0.06732785 -0.031098196 -0.0982672 -0.09175477 0.12763757 -0.01778144 -0.13628827 0.128329
-0.023772968 -0.21107447 0.22011672 0.26939672 0.17990829 -0.01908842 -0.18072382 -0.015258682
0.015134787 0.0031181343 -0.008500175 -0.22407636 -0.109014325 0.08805455 0.027308915 -0.20829302
-0.13188556 0.16387919 -0.018507006 -0.26535252 0.16952264 0.095301114 0.047714397 -0.1052581
0.12090056 -0.004306436 -0.20908596 0.105794065 -0.08904476 0.0058239275 -0.0016763491 -0.20345365
-0.11665148 -0.0047948086 -0.03113226 0.33365485 -0.08233361 -0.08209738 0.014137931 -0.19424087
-0.18130952 0.1327394 -0.13924047 0.01753248 0.13550818 -0.16796742 -0.013337793 -0.040061112
0.20306386 -0.066956185 -0.050424602 -0.21550034 0.04475819 -0.046186898 -0.066899635 0.026478827
00000000: 2fe3 893d a5c1 febc 5040 c9bd ede9 bbbd
00000010: 6cb3 023e 62aa 91bc 278f 0bbe ad68 033e
00000020: 87bf c2bc e823 58be 4766 613e 5eee 893e
00000030: e139 383e 515f 9cbc aa0f 39be 8dff 79bc
00000040: e6f7 773c 9d59 4c3b 5144 0bbc 4674 65be
00000050: e742 dfbd f255 b43d f2b6 df3c c44a 55be
00000060: 020d 07be f2cf 273e 019c 97bc 49dc 87be
00000070: 5897 2d3e 3b2d c33d 2c70 433d 8f91 d7bd
00000080: b69a f73d 011d 8dbb a11a 56be 8faa d83d
00000090: 195d b6bd a5d6 be3b f1b8 dbba 2756 50be
000000a0: f9e6 eebd c51d 9dbb 1509 ffbc cfd4 aa3e
000000b0: 869e a8bd ac22 a8bd c8a2 673c 14e7 46be
000000c0: 34a9 39be d6ec 073e 0e95 0ebe 47a0 8f3c
000000d0: a8c2 0a3e a7ff 2bbe c286 5abc 1f17 24bd
000000e0: f9ef 4f3e 5320 89bd 078a 4ebd 1fac 5cbe
000000f0: 5d54 373d 792e 3dbd ad02 89bd 20ea d83c

fc2.weight f4 [64, 64]
0.058407694 0.29902613 -0.1924418 0.2272699 0.1314437 0.02755253 0.19333175 0.23274703
0.1858819 0.23329696 -0.12481369 -0.07892203 0.06823506 -0.101388864 0.00086667994 0.03307825
-0.6068535 -0.25880736 0.035197347 -0.06713877 0.011290803 0.41688573 0.07766304 -0.30056545
-0.14124176 0.046554428 0.3999302 0.045313857 -0.8742657 -0.0052282037 -0.09946146 -0.30364853
0.003965593 -0.05130449 -0.22571954 -0.15108974 -0.061309926 -0.021350438 -0.26352587 -0.1334827
-0.003644726 0.18329495 0.201976 0.033321336 -0.28019968 -0.15551862 0.2286193 0.33237204
-0.08616659 0.123216845 -0.09591961 0.09887201 -0.24508582 -0.011755908 -0.18943827 -0.17896797
0.03196313 -0.28189424 0.121326156 0.15408853 0.25216544 0.052879374 -0.20182326 0.07297261
-0.017523564 -0.02211767 0.08184126 0.22203667 0.038591575 0.23358354 -0.008007583 0.09053124
-0.12731193 -0.09148962 -0.07903199 0.29830045 -0.28631952 -0.17100479 -0.08410093 0.11138043
0.11375518 0.2445469 -0.094705366 -0.1704226 0.19394122 -0.16719884 -0.10774572 0.18716745
0.16756141 0.056322623 -0.093461625 0.24252255 -0.123413995 -0.08892276 -0.24516821 -0.14211467
-0.19075397 0.06693429 0.040809967 -0.2096584 -0.06538824 0.10830257 -0.15828465 -0.13416356
-0.049971245 0.28700563 -0.1698425 -0.10447862 -0.2042608 -0.004744332 0.15883717 -0.12729645
0.17295487 -0.071344614 -0.12635957 0.07705945 0.11503462 -0.16506882 -0.11850024 0.011607162
-0.14649807 -0.007383724 -0.059394103 0.01902103 -0.048582308 -0.31678772 -0.15074946 -0.088464566
-1.943992e-05 0.028156163 -0.15665802 0.2718863 0.043907676 0.043443073 -0.16542648 -0.09111709
0.058365528 -0.11758502 0.14282554 -0.63775855 -0.066456065 0.06528664 -0.10476793 0.13767807
-0.11730087 -0.053303152 -0.06231379 0.02920934 0.025681531 0.34670436 0.016027931 0.027089495
-0.35701877 -0.12351027 0.31887552 0.044750746 -0.44430903 0.058522187 0.32848287 -0.029279523
-0.059112396 -0.10479095 -0.11306486 0.13845518 -0.15596628 -0.102184154 0.6202454 -0.05239493
0.03559603 -0.0936658 0.06751328 -0.088527195 0.2807806 -0.10707418 0.16144265 -0.17426011
0.16380912 0.1651723 0.26338863 -0.11543986 -0.22320391 0.3390598 -0.15677217 0.090179384
-0.072154105 -0.04874854 0.639874 -0.002942726 0.02680146 -0.025187781 0.10537286 0.09436926
0.00503267 -0.02758737 0.057821557 -0.00693625 -0.029331101 0.22467269 -0.22641607 0.036028508
-0.33289146 -0.259163 -0.0040318454 -0.23168355 0.043203525 -0.06535271 0.12086955 0.20005023
-0.003549015 -0.597652 -0.031986874 0.22691938 0.37040237 -0.36290613 0.15151168 -0.2840297
0.072758004 0.073474936 -0.08262566 -0.28954127 -0.24591942 -0.2204971 0.83664566 0.045574374
0.00460976 0.009419942 -0.047445573 0.30751887 -0.05090935 -0.19449757 -0.8332235 -0.10477391
-0.02041853 0.073210105 0.23345639 -0.081284426 0.08211523 -0.1126185 -0.2798666 0.20279154
0.3304173 -0.5158247 -0.18606982 0.0191458 0.013263296 -0.12366773 -0.16171472 0.017280316
0.06898176 -0.083168715 -0.31937104 0.011295652 -0.12759522 -0.51607877 -0.4060018 0.10443548
00000000: e83c 6f3d f419 993e 770f 45be 71b9 683e
00000010: 2d99 063e d8b5 e13c c2f8 453e 3d55 6e3e
00000020: d357 3e3e 66e5 6e3e 529e ffbd e0a1 a1bd
00000030: d3be 8b3d f7a4 cfbd e831 633a 0f7d 073d
00000040: c05a 1bbf 6682 84be 182b 103d 0d80 89bd
00000050: 0ffd 383c 0c72 d53e cd0d 9f3d b7e3 99be
00000060: aea1 10be dbaf 3e3d a7c3 cc3e 069b 393d
00000070: e0cf 5fbf 5a51 abbb 73b2 cbbd d277 9bbe
00000080: cef1 813b a824 52bd 0623 67be 45b7 1abe
00000090: 1e20 7bbd 1de7 aebc ddec 86be b0af 08be
000000a0: 5bdc 6ebb acb1 3b3e ccd2 4e3e f47b 083d
000000b0: 5576 8fbe 4640 1fbe 2e1b 6a3e ab2c aa3e
000000c0: 1c78 b0bd 1d59 fc3d 8071 c4bd 697d ca3d
000000d0: c7f7 7abe da9b 40bc 1bfc 41be 6143 37be
000000e0: c5eb 023d 7154 90be d979 f83d 62c9 1d3e
000000f0: d41b 813e 0b98 583d c2aa 4ebe aa72 953d
00000100: 948d 8fbc 1e30 b5bc 649c a73d 955d 633e
00000110: 3312 1e3d 8630 6f3e 3d32 03bc 7168 b93d
00000120: 0f5e 02be e95e bbbd 86db a1bd d6ba 983e
00000130: 7998 92be e11b 2fbe 1c3d acbd 6c1b e43d
00000140: 7af8 e83d 816a 7a3e e3f4 c1bd 4383 2ebe
00000150: 8798 463e 2c36 2bbe caa9 dcbd d3a8 3f3e
00000160: 3895 2b3e 8db2 663d cf68 bfbd d557 783e
00000170: 7ac0 fcbd 231d b6bd 600d 7bbe 8286 11be
00000180: 0255 43be d814 893d 5a28 273d b1b0 56be
00000190: 45ea 85bd bdcd dd3d 5f15 22be 2c62 09be
000001a0: a6ae 4cbd 67f2 923e 31eb 2dbe e3f8 d5bd
000001b0: be29 51be 5776 9bbb 36a6 223e 005a 02be
000001c0: 151b 313e 201d 92bd 6764 01be 58d1 9d3d
000001d0: 4597 eb3d cd07 29be 41b0 f2bd f72b 3e3c
000001e0: 9703 16be 2bf3 f1bb 3b47 73bd fed1 9b3c
000001f0: 3efe 46bd 0032 a2be 115e 1abe e92c b5bd
00000200: e912 a3b7 c1a7 e63c f66a 20be ae34 8b3e
00000210: 89d8 333d 5df1 313d 8f65 29be 999b babd
00000220: b110 6f3d 6ad0 f0bd dc40 123e 2544 23bf
00000230: 1e1a 88bd 00b5 853d 9290 d6bd 7bfb 0c3e
00000240: 703b f0bd 6854 5abd bf3c 7fbd 6d48 ef3c
00000250: 1362 d23c 3c83 b13e 024d 833c caea dd3c
00000260: 2acb b6be f4f2 fcbd a743 a33e 8f4c 373d
00000270: 797c e3be f6b4 6f3d e82e a83e 9cdb efbc
00000280: d71f 72bd a39c d6bd 8d8e e7bd 32c7 0d3e
00000290: a0b5 1fbe ed45 d1bd 67c8 1e3f 119c 56bd
000002a0: 25cd 113d dbd3 bfbd 6744 8a3d bf4d b5bd
000002b0: 7ac2 8f3e b549 dbbd 3951 253e 3e71 32be
000002c0: 94bd 273e ed22 293e e0da 863e bc6b ecbd
000002d0: 918f 64be 3f99 ad3e e288 20be f8af b83d
000002e0: 88c5 93bd 8dac 47bd c8ce 233f c0da 40bb
000002f0: bc8e db3c 9b56 cebc bacd d73d ac44 c13d
00000300: 19e9 a43b e8fe e1bc 4cd6 6c3d 7b49 e3bb
00000310: c747 f0bc 9910 663e 9dd9 67be a192 133d
00000320: c070 aabe 03b1 84be 921d 84bb 743e 6dbe
00000330: 2ef6 303d a4d7 85bd 748a f73d f8d9 4c3e
00000340: 9796 68bb b9ff 18bf ab04 03bd 8e5d 683e
00000350: 61a5 bd3e d5ce b9be e125 1b3e 576c 91be
00000360: 2602 953d 077a 963d a437 a9bd c13e 94be
00000370: 4dd2 7bbe fec9 61be 692e 563f 32ac 3a3d
00000380: 780d 973b 1a56 1a3c 4a56 42bd 1d73 9d3e
00000390: 5386 50bd 5f2a 47be 234e 55bf b493 d6bd
000003a0: c344 a7bc 2eef 953d 310f 6f3e 7378 a6bd
000003b0: 082c a83d 87a4 e6bd ad4a 8fbe 96a8 4f3e
000003c0: 752c a93e 160d 04bf 1689 3ebe a7d7 9c3c
000003d0: 4c4e 593c 8245 fdbd 8b98 25be 738f 8d3c
000003e0: 4f46 8d3d 5c54 aabd 9a84 a3be 6611 393c
000003f0: 52a8 02be bd1d 04bf 78df cfbe 45e2 d53d

fc2.bias f4 [64]
0.010353585 -0.0131947175 0.20637909 0.032995764 0.25334117 -0.18726546 0.019551227 -0.08473078
0.07019973 0.63920647 -0.13164891 0.29111323 0.11924575 0.10655407 -0.10142041 0.3310931
0.054082416 0.05423882 -0.050719097 0.2792445 0.17561744 0.72399473 -0.259385 -0.23248425
-0.053785816 -0.12782243 0.10623197 -0.10979123 -0.11360192 0.41081932 -0.047626708 0.028101021
-8.7834334e-05 0.43048477 0.19046587 0.022206692 -0.21821108 -0.106163904 0.17584598 0.05424077
-0.13947178 0.66646683 0.35001224 -0.045275107 0.095355146 -0.19036824 0.44832328 -0.15696073
-0.031865038 0.119503096 -0.07230663 0.5061823 -0.034479544 -0.041985407 0.46334937 -0.1620349
-0.3502161 -0.13369592 0.03537735 -0.22521666 0.14036854 0.5550772 0.062131096 -0.1853236
00000000: 15a2 293c a82e 58bc 0a55 533e 9126 073d
00000010: efb5 813e 84c2 3fbe e529 a03c 5587 adbd
00000020: e0c4 8f3d 09a3 233f f9ce 06be cb0c 953e
00000030: 1e37 f43d 0539 da3d 81b5 cfbd 0985 a93e
00000040: 8685 5d3d 8629 5e3d d4be 4fbd 23f9 8e3e
00000050: 0fd5 333e b857 393f 1cce 84be 5a10 6ebe
00000060: 844e 5cbd e2e3 02be 2690 d93d 39da e0bd
00000070: 20a8 e8bd e956 d23e 3914 43bd 1d34 e63c
00000080: b333 b8b8 8068 dc3e 7c09 433e cfea b53c
00000090: ba72 5fbe 766c d9bd f810 343e 922b 5e3d
000000a0: b1d1 0ebe 929d 2a3f ce34 b33e 6472 39bd
000000b0: 8f49 c33d e4ef 42be a18a e53e 50ba 20be
000000c0: ea84 02bd 0abe f43d 8015 94bd 2a95 013f
000000d0: 6c3a 0dbd e4f8 2bbd 213c ed3e 7aec 25be
000000e0: 864f b3be 95e7 08be d7e7 103d 329f 66be
000000f0: c5bc 0f3e 8a19 0e3f 2d7d 7e3d 78c5 3dbe

fc3.weight f4 [4, 64]
0.2908491 0.038283624 0.3913765 0.25814736 0.22928129 -0.07954455 -0.35329267 -0.10864282
-0.09448977 0.21087876 -0.4300307 0.2925459 0.07810119 0.09476976 -0.052657947 0.09443823
0.3928862 0.19703552 0.23658846 0.14989397 0.06639511 0.25062928 -0.44753504 -0.087124385
-0.6689835 -0.05841445 -0.10423686 -0.2809915 0.026897559 0.12214962 -0.21432675 0.14705455
0.16960186 0.25247857 0.027896447 0.26805374 0.1274523 -0.28151232 0.20444223 0.18334989
0.07549404 0.20512699 0.36735752 -0.118511446 0.3534249 -0.21840547 0.19538876 0.09859539
-0.35363057 0.043948945 -0.11854264 0.25488573 -0.2606695 0.11536702 0.18402 -0.009284206
-0.17759104 -0.0155954 0.18392581 -0.1291029 0.3798978 0.26696312 -0.008112303 -0.22528467
0.46512228 0.0522618 0.41026133 0.4723122 0.18028992 -0.16590779 -0.14184953 -0.2254233
0.07963895 0.22969949 0.33628678 0.16753176 0.047395404 0.15473968 -0.020247638 0.23346925
0.10761908 0.2191766 0.5327852 0.09232067 0.14482337 0.2874157 -0.307601 0.03727536
-0.0051680435 -0.09798713 0.22743714 -0.28215313 -0.048011653 0.20651248 -0.031375665 0.21456471
0.089456365 0.20287484 0.036328483 0.05655139 0.22718784 -0.08334071 0.20963338 0.13817509
0.09136513 0.22919407 0.2776605 -0.1979731 0.29010597 -0.09611308 0.20587423 -0.0385413
0.11963244 0.15886506 -0.039841875 0.23786396 -0.09118875 0.42355916 0.16411535 0.18098162
-0.3223451 -0.033322316 -0.1511805 -0.2639254 0.44479418 0.17089991 -0.40691468 -0.21786737
0.4617307 0.23249857 0.24597181 0.6524227 0.29389313 0.060565066 -0.275134 0.074914515
-0.3849098 0.15994537 -0.6623625 0.13851696 0.19451433 0.30722386 -0.03288349 0.25351262
0.1678647 0.14558591 -0.07193115 0.103898644 -0.076554865 0.26407564 -0.24660172 0.2957843
-0.124416895 0.006835765 0.37212396 -0.099771805 0.08950827 0.3141804 -0.19692469 -0.063179985
0.04341061 0.2993241 0.233251 0.1570447 0.24908464 -0.039869685 0.3045451 0.20125502
0.07845285 0.22841154 0.2726015 0.43512732 0.16977903 0.11225499 0.20703657 0.071178
-0.022283206 0.082176596 -0.19014283 0.3522705 -0.47396913 -0.055500094 0.19598721 0.2829727
-0.15666133 -0.0076373555 -0.1698078 -0.39950207 0.3737295 0.20751879 0.19640787 -0.23159018
0.44535828 0.44928843 0.19140062 -0.3098971 0.09998677 0.21496572 -0.32518694 -0.04754134
-0.04155954 0.246305 0.119968764 -0.050787196 0.27499947 0.21040885 0.043559257 0.16408448
0.73697495 0.2421186 0.6909358 0.14928597 0.14785205 0.28305364 -0.3602761 -0.11244191
0.13470533 -0.055236947 -0.295291 -0.05135213 0.09137696 0.13846245 0.12541382 0.14478709
-0.16592744 0.30326933 0.03217341 0.14021283 -0.23516926 0.01404743 0.18829203 0.21128733
-0.08745404 0.26637867 0.3092437 -0.35250896 0.4257979 -0.3470437 0.14351046 -0.0019091074
0.068664916 0.10189325 0.21494538 0.24915814 -0.033754036 0.43113953 0.20293519 0.3496232
-0.2076242 -0.085188374 -0.4805808 -0.3855493 0.017506199 0.1517542 -0.5203864 -0.2830181
00000000: 2cea 943e 4acf 1c3d 8062 c83e e42b 843e
00000010: b7c8 6a3e 41e8 a2bd c7e2 b4be 2080 debd
00000020: da83 c1bd 9af0 573e fc2c dcbe 94c8 953e
00000030: 84f3 9f3d a616 c23d dcaf 57bd d568 c13d
00000040: 6128 c93e aec3 493e 3f44 723e ce7d 193e
00000050: 29fa 873d 7b52 803e 5023 e5be 456e b2bd
00000060: 8142 2bbf fe43 6fbd 237a d5bd 1ede 8fbe
00000070: 4558 dc3c 9429 fa3d 7978 5bbe 7895 163e
00000080: 1cac 2d3e df44 813e 1787 e43c 573e 893e
00000090: db82 023e 6222 90be 4e59 513e 13c0 3b3e
000000a0: 9f9c 9a3d cf0c 523e 4916 bc3e 21b6 f2bd
000000b0: 1cf4 b43e afa5 5fbe fe13 483e 61ec c93d
000000c0: 110f b5be cf03 343d 7cc6 f2bd 6280 823e
000000d0: 7976 85be 8b45 ec3d bd6f 3c3e c81c 18bc
000000e0: 6dda 35be d983 7fbc 0c57 3c3e 8d33 04be
000000f0: f781 c23e 64af 883e 77e9 04bc 06b1 66be
00000100: 8224 ee3e 7810 563d c60d d23e e8d2 f13e
00000110: ec9d 383e bbe3 29be 0141 11be 5ed5 66be
00000120: bf19 a33d 5836 6b3e c82d ac3e 728d 2b3e
00000130: af21 423d 1474 1e3e 60de a5bc 9012 6f3e
00000140: 6467 dc3d d56f 603e 9c64 083f 9f12 bd3d
00000150: 944c 143e 2728 933e e17d 9dbe 0cae 183d
00000160: b158 a9bb 7aad c8bd 48e5 683e 6076 90be
00000170: dea7 44bd 0278 533e c583 00bd dab6 5b3e
00000180: e634 b73d 6cbe 4f3e 2dcd 143d 6ea2 673d
00000190: eea3 683e 89ae aabd 22aa 563e c57d 0d3e
000001a0: a41d bb3d dab1 6a3e 8429 8e3e 76b9 4abe
000001b0: c588 943e efd6 c4bd b2d0 523e 7bdd 1dbd
000001c0: da01 f53d 86ad 223e 3c31 23bd 9c92 733e
000001d0: 2bc1 babd bfdc d83e db0d 283e 3f53 393e
000001e0: 6b0a a5be fb7c 08bd 10cf 1abe 3b21 87be
000001f0: 10bc e33e 6300 2f3e 1f57 d0be a018 5fbe
00000200: f767 ec3e 1b14 6e3e 09e0 7b3e 2d05 273f
00000210: 2979 963e 1313 783d 5dde 8cbe c86c 993d
00000220: e612 c5be b8c8 233e 9790 29bf 64d7 0d3e
00000230: c42e 473e 724c 9d3e d7b0 06bd 68cc 813e
00000240: b9e4 2b3e 7914 153e a450 93bd d0c8 d43d
00000250: ccc8 9cbd ec34 873e 2985 7cbe 0a71 973e
00000260: 49ce febd 8efe df3b 0887 be3e 2955 ccbd
00000270: 1d50 b73d 41dc a03e a0a6 49be 8264 81bd
00000280: 53cf 313d 0241 993e 5ad9 6e3e 53d0 203e
00000290: 0b10 7f3e 654e 23bd 56ed 9b3e cc15 4e3e
000002a0: e3ab a03d b7e4 693e 6c92 8b3e 02c9 de3e
000002b0: 8eda 2d3e f2e5 e53d 6501 543e c5c5 913d
000002c0: 458b b6bc 344c a83d cdb4 42be cd5c b43e
000002d0: 15ac f2be 1154 63bd dfb0 483e cce1 903e
000002e0: d46b 20be c842 fabb 19e2 2dbe 898b ccbe
000002f0: 7959 bf3e ce7f 543e 251f 493e fa25 6dbe
00000300: 0006 e43e 2209 e63e 86fe 433e d5aa 9ebe
00000310: ddc5 cc3d f91f 5c3e e77e a6be b5ba 42bd
00000320: 563a 2abd 6137 7c3e 2fb2 f53d 3c06 50bd
00000330: bbcc 8c3e 6b75 573e 316b 323d c305 283e
00000340: 64aa 3c3f f0ed 773e 2be1 303f 6cde 183e
00000350: 8766 173e 68ec 903e 1c76 b8be f247 e6bd
00000360: 32f0 093e 2340 62bd 6230 97be 9c56 52bd
00000370: d823 bb3d 1ac9 0d3e 7b6c 003e 1143 143e
00000380: e2e8 29be 1e46 9b3e 44c8 033d f493 0f3e
00000390: 36d0 70be 3127 663c a0cf 403e b55b 583e
000003a0: 1b1b b3bd c962 883e 3155 9e3e 0e7c b4be
000003b0: 2f02 da3e b6af b1be 68f4 123e 043b faba
000003c0: 31a0 8c3d 69ad d03d a41a 5c3e 5023 7f3e
000003d0: ac41 0abd 52be dc3e 3ece 4f3e d001 b33e
000003e0: 709b 54be 3e77 aebd b00e f6be b866 c5be
000003f0: 2969 8f3c 7465 1b3e 0b38 05bf c0e7 90be

fc3.bias f4 [4]
0.4988552 0.32121056 0.2682598 0.3430785
00000000: f369 ff3e b675 a43e 5959 893e fca7 af3e
